…
309: model.layer4.2.conv3.weight
310: model.layer4.2.bn3.weight
311: model.layer4.2.bn3.bias
312: model.fc.weight
313: model.fc.bias
=============================================================


========================================================================================================================
Layer (type:depth-idx)                        Input Shape               Output Shape              Param #
========================================================================================================================
ResNet                                        [1, 1, 224, 224]          [1, 2]                    --
├─ResNet: 1-1                                 [1, 1, 224, 224]          [1, 2]                    --
│    └─Conv2d: 2-1                            [1, 1, 224, 224]          [1, 64, 112, 112]         3,136
│    └─BatchNorm2d: 2-2                       [1, 64, 112, 112]         [1, 64, 112, 112]         128
│    └─ReLU: 2-3                              [1, 64, 112, 112]         [1, 64, 112, 112]         --
│    └─MaxPool2d: 2-4                         [1, 64, 112, 112]         [1, 64, 56, 56]           --
│    └─Sequential: 2-5                        [1, 64, 56, 56]           [1, 256, 56, 56]          --
│    │    └─Bottleneck: 3-1                   [1, 64, 56, 56]           [1, 256, 56, 56]          --
│    │    │    └─Conv2d: 4-1                  [1, 64, 56, 56]           [1, 64, 56, 56]           (4,096)
│    │    │    └─BatchNorm2d: 4-2             [1, 64, 56, 56]           [1, 64, 56, 56]           (128)
│    │    │    └─ReLU: 4-3                    [1, 64, 56, 56]           [1, 64, 56, 56]           --
│    │    │    └─Conv2d: 4-4                  [1, 64, 56, 56]           [1, 64, 56, 56]           (36,864)
│    │    │    └─BatchNorm2d: 4-5             [1, 64, 56, 56]           [1, 64, 56, 56]           (128)
│    │    │    └─ReLU: 4-6                    [1, 64, 56, 56]           [1, 64, 56, 56]           --
│    │    │    └─Conv2d: 4-7                  [1, 64, 56, 56]           [1, 256, 56, 56]          (16,384)
│    │    │    └─BatchNorm2d: 4-8             [1, 256, 56, 56]          [1, 256, 56, 56]          (512)
│    │    │    └─Sequential: 4-9              [1, 64, 56, 56]           [1, 256, 56, 56]          --
│    │    │    │    └─Conv2d: 5-1             [1, 64, 56, 56]           [1, 256, 56, 56]          (16,384)
│    │    │    │    └─BatchNorm2d: 5-2        [1, 256, 56, 56]          [1, 256, 56, 56]          (512)
│    │    │    └─ReLU: 4-10                   [1, 256, 56, 56]          [1, 256, 56, 56]          --
│    │    └─Bottleneck: 3-2                   [1, 256, 56, 56]          [1, 256, 56, 56]          --
│    │    │    └─Conv2d: 4-11                 [1, 256, 56, 56]          [1, 64, 56, 56]           (16,384)
│    │    │    └─BatchNorm2d: 4-12            [1, 64, 56, 56]           [1, 64, 56, 56]           (128)
│    │    │    └─ReLU: 4-13                   [1, 64, 56, 56]           [1, 64, 56, 56]           --
│    │    │    └─Conv2d: 4-14                 [1, 64, 56, 56]           [1, 64, 56, 56]           (36,864)
│    │    │    └─BatchNorm2d: 4-15            [1, 64, 56, 56]           [1, 64, 56, 56]           (128)
│    │    │    └─ReLU: 4-16                   [1, 64, 56, 56]           [1, 64, 56, 56]           --
│    │    │    └─Conv2d: 4-17                 [1, 64, 56, 56]           [1, 256, 56, 56]          (16,384)
│    │    │    └─BatchNorm2d: 4-18            [1, 256, 56, 56]          [1, 256, 56, 56]          (512)
│    │    │    └─ReLU: 4-19                   [1, 256, 56, 56]          [1, 256, 56, 56]          --
│    │    └─Bottleneck: 3-3                   [1, 256, 56, 56]          [1, 256, 56, 56]          --
│    │    │    └─Conv2d: 4-20                 [1, 256, 56, 56]          [1, 64, 56, 56]           (16,384)
│    │    │    └─BatchNorm2d: 4-21            [1, 64, 56, 56]           [1, 64, 56, 56]           (128)
│    │    │    └─ReLU: 4-22                   [1, 64, 56, 56]           [1, 64, 56, 56]           --
│    │    │    └─Conv2d: 4-23                 [1, 64, 56, 56]           [1, 64, 56, 56]           (36,864)
│    │    │    └─BatchNorm2d: 4-24            [1, 64, 56, 56]           [1, 64, 56, 56]           (128)
│    │    │    └─ReLU: 4-25                   [1, 64, 56, 56]           [1, 64, 56, 56]           --
│    │    │    └─Conv2d: 4-26                 [1, 64, 56, 56]           [1, 256, 56, 56]          (16,384)
│    │    │    └─BatchNorm2d: 4-27            [1, 256, 56, 56]          [1, 256, 56, 56]          (512)
│    │    │    └─ReLU: 4-28                   [1, 256, 56, 56]          [1, 256, 56, 56]          --
│    └─Sequential: 2-6                        [1, 256, 56, 56]          [1, 512, 28, 28]          --
│    │    └─Bottleneck: 3-4                   [1, 256, 56, 56]          [1, 512, 28, 28]          --
│    │    │    └─Conv2d: 4-29                 [1, 256, 56, 56]          [1, 128, 56, 56]          (32,768)
│    │    │    └─BatchNorm2d: 4-30            [1, 128, 56, 56]          [1, 128, 56, 56]          (256)
│    │    │    └─ReLU: 4-31                   [1, 128, 56, 56]          [1, 128, 56, 56]          --
│    │    │    └─Conv2d: 4-32                 [1, 128, 56, 56]          [1, 128, 28, 28]          (147,456)
│    │    │    └─BatchNorm2d: 4-33            [1, 128, 28, 28]          [1, 128, 28, 28]          (256)
│    │    │    └─ReLU: 4-34                   [1, 128, 28, 28]          [1, 128, 28, 28]          --
│    │    │    └─Conv2d: 4-35                 [1, 128, 28, 28]          [1, 512, 28, 28]          (65,536)
│    │    │    └─BatchNorm2d: 4-36            [1, 512, 28, 28]          [1, 512, 28, 28]          (1,024)
│    │    │    └─Sequential: 4-37             [1, 256, 56, 56]          [1, 512, 28, 28]          --
│    │    │    │    └─Conv2d: 5-3             [1, 256, 56, 56]          [1, 512, 28, 28]          (131,072)
│    │    │    │    └─BatchNorm2d: 5-4        [1, 512, 28, 28]          [1, 512, 28, 28]          (1,024)
│    │    │    └─ReLU: 4-38                   [1, 512, 28, 28]          [1, 512, 28, 28]          --
│    │    └─Bottleneck: 3-5                   [1, 512, 28, 28]          [1, 512, 28, 28]          --
│    │    │    └─Conv2d: 4-39                 [1, 512, 28, 28]          [1, 128, 28, 28]          (65,536)
│    │    │    └─BatchNorm2d: 4-40            [1, 128, 28, 28]          [1, 128, 28, 28]          (256)
│    │    │    └─ReLU: 4-41                   [1, 128, 28, 28]          [1, 128, 28, 28]          --
│    │    │    └─Conv2d: 4-42                 [1, 128, 28, 28]          [1, 128, 28, 28]          (147,456)
│    │    │    └─BatchNorm2d: 4-43            [1, 128, 28, 28]          [1, 128, 28, 28]          (256)
│    │    │    └─ReLU: 4-44                   [1, 128, 28, 28]          [1, 128, 28, 28]          --
│    │    │    └─Conv2d: 4-45                 [1, 128, 28, 28]          [1, 512, 28, 28]          (65,536)
│    │    │    └─BatchNorm2d: 4-46            [1, 512, 28, 28]          [1, 512, 28, 28]          (1,024)
│    │    │    └─ReLU: 4-47                   [1, 512, 28, 28]          [1, 512, 28, 28]          --
│    │    └─Bottleneck: 3-6                   [1, 512, 28, 28]          [1, 512, 28, 28]          --
│    │    │    └─Conv2d: 4-48                 [1, 512, 28, 28]          [1, 128, 28, 28]          (65,536)
│    │    │    └─BatchNorm2d: 4-49            [1, 128, 28, 28]          [1, 128, 28, 28]          (256)
│    │    │    └─ReLU: 4-50                   [1, 128, 28, 28]          [1, 128, 28, 28]          --
│    │    │    └─Conv2d: 4-51                 [1, 128, 28, 28]          [1, 128, 28, 28]          (147,456)
│    │    │    └─BatchNorm2d: 4-52            [1, 128, 28, 28]          [1, 128, 28, 28]          (256)
│    │    │    └─ReLU: 4-53                   [1, 128, 28, 28]          [1, 128, 28, 28]          --
│    │    │    └─Conv2d: 4-54                 [1, 128, 28, 28]          [1, 512, 28, 28]          (65,536)
│    │    │    └─BatchNorm2d: 4-55            [1, 512, 28, 28]          [1, 512, 28, 28]          (1,024)
│    │    │    └─ReLU: 4-56                   [1, 512, 28, 28]          [1, 512, 28, 28]          --
│    │    └─Bottleneck: 3-7                   [1, 512, 28, 28]          [1, 512, 28, 28]          --
│    │    │    └─Conv2d: 4-57                 [1, 512, 28, 28]          [1, 128, 28, 28]          (65,536)
│    │    │    └─BatchNorm2d: 4-58            [1, 128, 28, 28]          [1, 128, 28, 28]          (256)
│    │    │    └─ReLU: 4-59                   [1, 128, 28, 28]          [1, 128, 28, 28]          --
│    │    │    └─Conv2d: 4-60                 [1, 128, 28, 28]          [1, 128, 28, 28]          (147,456)
│    │    │    └─BatchNorm2d: 4-61            [1, 128, 28, 28]          [1, 128, 28, 28]          (256)
│    │    │    └─ReLU: 4-62                   [1, 128, 28, 28]          [1, 128, 28, 28]          --
│    │    │    └─Conv2d: 4-63                 [1, 128, 28, 28]          [1, 512, 28, 28]          (65,536)
│    │    │    └─BatchNorm2d: 4-64            [1, 512, 28, 28]          [1, 512, 28, 28]          (1,024)
│    │    │    └─ReLU: 4-65                   [1, 512, 28, 28]          [1, 512, 28, 28]          --
│    └─Sequential: 2-7                        [1, 512, 28, 28]          [1, 1024, 14, 14]         --
│    │    └─Bottleneck: 3-8                   [1, 512, 28, 28]          [1, 1024, 14, 14]         --
│    │    │    └─Conv2d: 4-66                 [1, 512, 28, 28]          [1, 256, 28, 28]          (131,072)
│    │    │    └─BatchNorm2d: 4-67            [1, 256, 28, 28]          [1, 256, 28, 28]          (512)
│    │    │    └─ReLU: 4-68                   [1, 256, 28, 28]          [1, 256, 28, 28]          --
│    │    │    └─Conv2d: 4-69                 [1, 256, 28, 28]          [1, 256, 14, 14]          (589,824)
│    │    │    └─BatchNorm2d: 4-70            [1, 256, 14, 14]          [1, 256, 14, 14]          (512)
│    │    │    └─ReLU: 4-71                   [1, 256, 14, 14]          [1, 256, 14, 14]          --
│    │    │    └─Conv2d: 4-72                 [1, 256, 14, 14]          [1, 1024, 14, 14]         (262,144)
│    │    │    └─BatchNorm2d: 4-73            [1, 1024, 14, 14]         [1, 1024, 14, 14]         (2,048)
│    │    │    └─Sequential: 4-74             [1, 512, 28, 28]          [1, 1024, 14, 14]         --
│    │    │    │    └─Conv2d: 5-5             [1, 512, 28, 28]          [1, 1024, 14, 14]         (524,288)
│    │    │    │    └─BatchNorm2d: 5-6        [1, 1024, 14, 14]         [1, 1024, 14, 14]         (2,048)
│    │    │    └─ReLU: 4-75                   [1, 1024, 14, 14]         [1, 1024, 14, 14]         --
│    │    └─Bottleneck: 3-9                   [1, 1024, 14, 14]         [1, 1024, 14, 14]         --
│    │    │    └─Conv2d: 4-76                 [1, 1024, 14, 14]         [1, 256, 14, 14]          (262,144)
│    │    │    └─BatchNorm2d: 4-77            [1, 256, 14, 14]          [1, 256, 14, 14]          (512)
│    │    │    └─ReLU: 4-78                   [1, 256, 14, 14]          [1, 256, 14, 14]          --
│    │    │    └─Conv2d: 4-79                 [1, 256, 14, 14]          [1, 256, 14, 14]          (589,824)
│    │    │    └─BatchNorm2d: 4-80            [1, 256, 14, 14]          [1, 256, 14, 14]          (512)
│    │    │    └─ReLU: 4-81                   [1, 256, 14, 14]          [1, 256, 14, 14]          --
│    │    │    └─Conv2d: 4-82                 [1, 256, 14, 14]          [1, 1024, 14, 14]         (262,144)
│    │    │    └─BatchNorm2d: 4-83            [1, 1024, 14, 14]         [1, 1024, 14, 14]         (2,048)
│    │    │    └─ReLU: 4-84                   [1, 1024, 14, 14]         [1, 1024, 14, 14]         --
│    │    └─Bottleneck: 3-10                  [1, 1024, 14, 14]         [1, 1024, 14, 14]         --
│    │    │    └─Conv2d: 4-85                 [1, 1024, 14, 14]         [1, 256, 14, 14]          (262,144)
│    │    │    └─BatchNorm2d: 4-86            [1, 256, 14, 14]          [1, 256, 14, 14]          (512)
│    │    │    └─ReLU: 4-87                   [1, 256, 14, 14]          [1, 256, 14, 14]          --
│    │    │    └─Conv2d: 4-88                 [1, 256, 14, 14]          [1, 256, 14, 14]          (589,824)
│    │    │    └─BatchNorm2d: 4-89            [1, 256, 14, 14]          [1, 256, 14, 14]          (512)
│    │    │    └─ReLU: 4-90                   [1, 256, 14, 14]          [1, 256, 14, 14]          --
│    │    │    └─Conv2d: 4-91                 [1, 256, 14, 14]          [1, 1024, 14, 14]         (262,144)
│    │    │    └─BatchNorm2d: 4-92            [1, 1024, 14, 14]         [1, 1024, 14, 14]         (2,048)
│    │    │    └─ReLU: 4-93                   [1, 1024, 14, 14]         [1, 1024, 14, 14]         --
│    │    └─Bottleneck: 3-11                  [1, 1024, 14, 14]         [1, 1024, 14, 14]         --
│    │    │    └─Conv2d: 4-94                 [1, 1024, 14, 14]         [1, 256, 14, 14]          (262,144)
│    │    │    └─BatchNorm2d: 4-95            [1, 256, 14, 14]          [1, 256, 14, 14]          (512)
│    │    │    └─ReLU: 4-96                   [1, 256, 14, 14]          [1, 256, 14, 14]          --
│    │    │    └─Conv2d: 4-97                 [1, 256, 14, 14]          [1, 256, 14, 14]          (589,824)
│    │    │    └─BatchNorm2d: 4-98            [1, 256, 14, 14]          [1, 256, 14, 14]          (512)
│    │    │    └─ReLU: 4-99                   [1, 256, 14, 14]          [1, 256, 14, 14]          --
│    │    │    └─Conv2d: 4-100                [1, 256, 14, 14]          [1, 1024, 14, 14]         (262,144)
│    │    │    └─BatchNorm2d: 4-101           [1, 1024, 14, 14]         [1, 1024, 14, 14]         (2,048)
│    │    │    └─ReLU: 4-102                  [1, 1024, 14, 14]         [1, 1024, 14, 14]         --
│    │    └─Bottleneck: 3-12                  [1, 1024, 14, 14]         [1, 1024, 14, 14]         --
│    │    │    └─Conv2d: 4-103                [1, 1024, 14, 14]         [1, 256, 14, 14]          (262,144)
│    │    │    └─BatchNorm2d: 4-104           [1, 256, 14, 14]          [1, 256, 14, 14]          (512)
│    │    │    └─ReLU: 4-105                  [1, 256, 14, 14]          [1, 256, 14, 14]          --
│    │    │    └─Conv2d: 4-106                [1, 256, 14, 14]          [1, 256, 14, 14]          (589,824)
│    │    │    └─BatchNorm2d: 4-107           [1, 256, 14, 14]          [1, 256, 14, 14]          (512)
│    │    │    └─ReLU: 4-108                  [1, 256, 14, 14]          [1, 256, 14, 14]          --
│    │    │    └─Conv2d: 4-109                [1, 256, 14, 14]          [1, 1024, 14, 14]         (262,144)
│    │    │    └─BatchNorm2d: 4-110           [1, 1024, 14, 14]         [1, 1024, 14, 14]         (2,048)
│    │    │    └─ReLU: 4-111                  [1, 1024, 14, 14]         [1, 1024, 14, 14]         --
│    │    └─Bottleneck: 3-13                  [1, 1024, 14, 14]         [1, 1024, 14, 14]         --
│    │    │    └─Conv2d: 4-112                [1, 1024, 14, 14]         [1, 256, 14, 14]          (262,144)
│    │    │    └─BatchNorm2d: 4-113           [1, 256, 14, 14]          [1, 256, 14, 14]          (512)
│    │    │    └─ReLU: 4-114                  [1, 256, 14, 14]          [1, 256, 14, 14]          --
│    │    │    └─Conv2d: 4-115                [1, 256, 14, 14]          [1, 256, 14, 14]          (589,824)
│    │    │    └─BatchNorm2d: 4-116           [1, 256, 14, 14]          [1, 256, 14, 14]          (512)
│    │    │    └─ReLU: 4-117                  [1, 256, 14, 14]          [1, 256, 14, 14]          --
│    │    │    └─Conv2d: 4-118                [1, 256, 14, 14]          [1, 1024, 14, 14]         (262,144)
│    │    │    └─BatchNorm2d: 4-119           [1, 1024, 14, 14]         [1, 1024, 14, 14]         (2,048)
│    │    │    └─ReLU: 4-120                  [1, 1024, 14, 14]         [1, 1024, 14, 14]         --
│    │    └─Bottleneck: 3-14                  [1, 1024, 14, 14]         [1, 1024, 14, 14]         --
│    │    │    └─Conv2d: 4-121                [1, 1024, 14, 14]         [1, 256, 14, 14]          (262,144)
│    │    │    └─BatchNorm2d: 4-122           [1, 256, 14, 14]          [1, 256, 14, 14]          (512)
│    │    │    └─ReLU: 4-123                  [1, 256, 14, 14]          [1, 256, 14, 14]          --
│    │    │    └─Conv2d: 4-124                [1, 256, 14, 14]          [1, 256, 14, 14]          (589,824)
│    │    │    └─BatchNorm2d: 4-125           [1, 256, 14, 14]          [1, 256, 14, 14]          (512)
│    │    │    └─ReLU: 4-126                  [1, 256, 14, 14]          [1, 256, 14, 14]          --
│    │    │    └─Conv2d: 4-127                [1, 256, 14, 14]          [1, 1024, 14, 14]         (262,144)
│    │    │    └─BatchNorm2d: 4-128           [1, 1024, 14, 14]         [1, 1024, 14, 14]         (2,048)
│    │    │    └─ReLU: 4-129                  [1, 1024, 14, 14]         [1, 1024, 14, 14]         --
│    │    └─Bottleneck: 3-15                  [1, 1024, 14, 14]         [1, 1024, 14, 14]         --
│    │    │    └─Conv2d: 4-130                [1, 1024, 14, 14]         [1, 256, 14, 14]          (262,144)
│    │    │    └─BatchNorm2d: 4-131           [1, 256, 14, 14]          [1, 256, 14, 14]          (512)
│    │    │    └─ReLU: 4-132                  [1, 256, 14, 14]          [1, 256, 14, 14]          --
│    │    │    └─Conv2d: 4-133                [1, 256, 14, 14]          [1, 256, 14, 14]          (589,824)
│    │    │    └─BatchNorm2d: 4-134           [1, 256, 14, 14]          [1, 256, 14, 14]          (512)
│    │    │    └─ReLU: 4-135                  [1, 256, 14, 14]          [1, 256, 14, 14]          --
│    │    │    └─Conv2d: 4-136                [1, 256, 14, 14]          [1, 1024, 14, 14]         (262,144)
│    │    │    └─BatchNorm2d: 4-137           [1, 1024, 14, 14]         [1, 1024, 14, 14]         (2,048)
│    │    │    └─ReLU: 4-138                  [1, 1024, 14, 14]         [1, 1024, 14, 14]         --
│    │    └─Bottleneck: 3-16                  [1, 1024, 14, 14]         [1, 1024, 14, 14]         --
│    │    │    └─Conv2d: 4-139                [1, 1024, 14, 14]         [1, 256, 14, 14]          (262,144)
│    │    │    └─BatchNorm2d: 4-140           [1, 256, 14, 14]          [1, 256, 14, 14]          (512)
│    │    │    └─ReLU: 4-141                  [1, 256, 14, 14]          [1, 256, 14, 14]          --
│    │    │    └─Conv2d: 4-142                [1, 256, 14, 14]          [1, 256, 14, 14]          (589,824)
│    │    │    └─BatchNorm2d: 4-143           [1, 256, 14, 14]          [1, 256, 14, 14]          (512)
│    │    │    └─ReLU: 4-144                  [1, 256, 14, 14]          [1, 256, 14, 14]          --
│    │    │    └─Conv2d: 4-145                [1, 256, 14, 14]          [1, 1024, 14, 14]         (262,144)
│    │    │    └─BatchNorm2d: 4-146           [1, 1024, 14, 14]         [1, 1024, 14, 14]         (2,048)
│    │    │    └─ReLU: 4-147                  [1, 1024, 14, 14]         [1, 1024, 14, 14]         --
│    │    └─Bottleneck: 3-17                  [1, 1024, 14, 14]         [1, 1024, 14, 14]         --
│    │    │    └─Conv2d: 4-148                [1, 1024, 14, 14]         [1, 256, 14, 14]          (262,144)
│    │    │    └─BatchNorm2d: 4-149           [1, 256, 14, 14]          [1, 256, 14, 14]          (512)
│    │    │    └─ReLU: 4-150                  [1, 256, 14, 14]          [1, 256, 14, 14]          --
│    │    │    └─Conv2d: 4-151                [1, 256, 14, 14]          [1, 256, 14, 14]          (589,824)
│    │    │    └─BatchNorm2d: 4-152           [1, 256, 14, 14]          [1, 256, 14, 14]          (512)
│    │    │    └─ReLU: 4-153                  [1, 256, 14, 14]          [1, 256, 14, 14]          --
│    │    │    └─Conv2d: 4-154                [1, 256, 14, 14]          [1, 1024, 14, 14]         (262,144)
│    │    │    └─BatchNorm2d: 4-155           [1, 1024, 14, 14]         [1, 1024, 14, 14]         (2,048)
│    │    │    └─ReLU: 4-156                  [1, 1024, 14, 14]         [1, 1024, 14, 14]         --
│    │    └─Bottleneck: 3-18                  [1, 1024, 14, 14]         [1, 1024, 14, 14]         --
│    │    │    └─Conv2d: 4-157                [1, 1024, 14, 14]         [1, 256, 14, 14]          (262,144)
│    │    │    └─BatchNorm2d: 4-158           [1, 256, 14, 14]          [1, 256, 14, 14]          (512)
│    │    │    └─ReLU: 4-159                  [1, 256, 14, 14]          [1, 256, 14, 14]          --
│    │    │    └─Conv2d: 4-160                [1, 256, 14, 14]          [1, 256, 14, 14]          (589,824)
│    │    │    └─BatchNorm2d: 4-161           [1, 256, 14, 14]          [1, 256, 14, 14]          (512)
│    │    │    └─ReLU: 4-162                  [1, 256, 14, 14]          [1, 256, 14, 14]          --
│    │    │    └─Conv2d: 4-163                [1, 256, 14, 14]          [1, 1024, 14, 14]         (262,144)
│    │    │    └─BatchNorm2d: 4-164           [1, 1024, 14, 14]         [1, 1024, 14, 14]         (2,048)
│    │    │    └─ReLU: 4-165                  [1, 1024, 14, 14]         [1, 1024, 14, 14]         --
│    │    └─Bottleneck: 3-19                  [1, 1024, 14, 14]         [1, 1024, 14, 14]         --
│    │    │    └─Conv2d: 4-166                [1, 1024, 14, 14]         [1, 256, 14, 14]          (262,144)
│    │    │    └─BatchNorm2d: 4-167           [1, 256, 14, 14]          [1, 256, 14, 14]          (512)
│    │    │    └─ReLU: 4-168                  [1, 256, 14, 14]          [1, 256, 14, 14]          --
│    │    │    └─Conv2d: 4-169                [1, 256, 14, 14]          [1, 256, 14, 14]          (589,824)
│    │    │    └─BatchNorm2d: 4-170           [1, 256, 14, 14]          [1, 256, 14, 14]          (512)
│    │    │    └─ReLU: 4-171                  [1, 256, 14, 14]          [1, 256, 14, 14]          --
│    │    │    └─Conv2d: 4-172                [1, 256, 14, 14]          [1, 1024, 14, 14]         (262,144)
│    │    │    └─BatchNorm2d: 4-173           [1, 1024, 14, 14]         [1, 1024, 14, 14]         (2,048)
│    │    │    └─ReLU: 4-174                  [1, 1024, 14, 14]         [1, 1024, 14, 14]         --
│    │    └─Bottleneck: 3-20                  [1, 1024, 14, 14]         [1, 1024, 14, 14]         --
│    │    │    └─Conv2d: 4-175                [1, 1024, 14, 14]         [1, 256, 14, 14]          262,144
│    │    │    └─BatchNorm2d: 4-176           [1, 256, 14, 14]          [1, 256, 14, 14]          512
│    │    │    └─ReLU: 4-177                  [1, 256, 14, 14]          [1, 256, 14, 14]          --
│    │    │    └─Conv2d: 4-178                [1, 256, 14, 14]          [1, 256, 14, 14]          589,824
│    │    │    └─BatchNorm2d: 4-179           [1, 256, 14, 14]          [1, 256, 14, 14]          512
│    │    │    └─ReLU: 4-180                  [1, 256, 14, 14]          [1, 256, 14, 14]          --
│    │    │    └─Conv2d: 4-181                [1, 256, 14, 14]          [1, 1024, 14, 14]         262,144
│    │    │    └─BatchNorm2d: 4-182           [1, 1024, 14, 14]         [1, 1024, 14, 14]         2,048
│    │    │    └─ReLU: 4-183                  [1, 1024, 14, 14]         [1, 1024, 14, 14]         --
│    │    └─Bottleneck: 3-21                  [1, 1024, 14, 14]         [1, 1024, 14, 14]         --
│    │    │    └─Conv2d: 4-184                [1, 1024, 14, 14]         [1, 256, 14, 14]          262,144
│    │    │    └─BatchNorm2d: 4-185           [1, 256, 14, 14]          [1, 256, 14, 14]          512
│    │    │    └─ReLU: 4-186                  [1, 256, 14, 14]          [1, 256, 14, 14]          --
│    │    │    └─Conv2d: 4-187                [1, 256, 14, 14]          [1, 256, 14, 14]          589,824
│    │    │    └─BatchNorm2d: 4-188           [1, 256, 14, 14]          [1, 256, 14, 14]          512
│    │    │    └─ReLU: 4-189                  [1, 256, 14, 14]          [1, 256, 14, 14]          --
│    │    │    └─Conv2d: 4-190                [1, 256, 14, 14]          [1, 1024, 14, 14]         262,144
│    │    │    └─BatchNorm2d: 4-191           [1, 1024, 14, 14]         [1, 1024, 14, 14]         2,048
│    │    │    └─ReLU: 4-192                  [1, 1024, 14, 14]         [1, 1024, 14, 14]         --
│    │    └─Bottleneck: 3-22                  [1, 1024, 14, 14]         [1, 1024, 14, 14]         --
│    │    │    └─Conv2d: 4-193                [1, 1024, 14, 14]         [1, 256, 14, 14]          262,144
│    │    │    └─BatchNorm2d: 4-194           [1, 256, 14, 14]          [1, 256, 14, 14]          512
│    │    │    └─ReLU: 4-195                  [1, 256, 14, 14]          [1, 256, 14, 14]          --
│    │    │    └─Conv2d: 4-196                [1, 256, 14, 14]          [1, 256, 14, 14]          589,824
│    │    │    └─BatchNorm2d: 4-197           [1, 256, 14, 14]          [1, 256, 14, 14]          512
│    │    │    └─ReLU: 4-198                  [1, 256, 14, 14]          [1, 256, 14, 14]          --
│    │    │    └─Conv2d: 4-199                [1, 256, 14, 14]          [1, 1024, 14, 14]         262,144
│    │    │    └─BatchNorm2d: 4-200           [1, 1024, 14, 14]         [1, 1024, 14, 14]         2,048
│    │    │    └─ReLU: 4-201                  [1, 1024, 14, 14]         [1, 1024, 14, 14]         --
│    │    └─Bottleneck: 3-23                  [1, 1024, 14, 14]         [1, 1024, 14, 14]         --
│    │    │    └─Conv2d: 4-202                [1, 1024, 14, 14]         [1, 256, 14, 14]          262,144
│    │    │    └─BatchNorm2d: 4-203           [1, 256, 14, 14]          [1, 256, 14, 14]          512
│    │    │    └─ReLU: 4-204                  [1, 256, 14, 14]          [1, 256, 14, 14]          --
│    │    │    └─Conv2d: 4-205                [1, 256, 14, 14]          [1, 256, 14, 14]          589,824
│    │    │    └─BatchNorm2d: 4-206           [1, 256, 14, 14]          [1, 256, 14, 14]          512
│    │    │    └─ReLU: 4-207                  [1, 256, 14, 14]          [1, 256, 14, 14]          --
│    │    │    └─Conv2d: 4-208                [1, 256, 14, 14]          [1, 1024, 14, 14]         262,144
│    │    │    └─BatchNorm2d: 4-209           [1, 1024, 14, 14]         [1, 1024, 14, 14]         2,048
│    │    │    └─ReLU: 4-210                  [1, 1024, 14, 14]         [1, 1024, 14, 14]         --
│    │    └─Bottleneck: 3-24                  [1, 1024, 14, 14]         [1, 1024, 14, 14]         --
│    │    │    └─Conv2d: 4-211                [1, 1024, 14, 14]         [1, 256, 14, 14]          262,144
│    │    │    └─BatchNorm2d: 4-212           [1, 256, 14, 14]          [1, 256, 14, 14]          512
│    │    │    └─ReLU: 4-213                  [1, 256, 14, 14]          [1, 256, 14, 14]          --
│    │    │    └─Conv2d: 4-214                [1, 256, 14, 14]          [1, 256, 14, 14]          589,824
│    │    │    └─BatchNorm2d: 4-215           [1, 256, 14, 14]          [1, 256, 14, 14]          512
│    │    │    └─ReLU: 4-216                  [1, 256, 14, 14]          [1, 256, 14, 14]          --
│    │    │    └─Conv2d: 4-217                [1, 256, 14, 14]          [1, 1024, 14, 14]         262,144
│    │    │    └─BatchNorm2d: 4-218           [1, 1024, 14, 14]         [1, 1024, 14, 14]         2,048
│    │    │    └─ReLU: 4-219                  [1, 1024, 14, 14]         [1, 1024, 14, 14]         --
│    │    └─Bottleneck: 3-25                  [1, 1024, 14, 14]         [1, 1024, 14, 14]         --
│    │    │    └─Conv2d: 4-220                [1, 1024, 14, 14]         [1, 256, 14, 14]          262,144
│    │    │    └─BatchNorm2d: 4-221           [1, 256, 14, 14]          [1, 256, 14, 14]          512
│    │    │    └─ReLU: 4-222                  [1, 256, 14, 14]          [1, 256, 14, 14]          --
│    │    │    └─Conv2d: 4-223                [1, 256, 14, 14]          [1, 256, 14, 14]          589,824
│    │    │    └─BatchNorm2d: 4-224           [1, 256, 14, 14]          [1, 256, 14, 14]          512
│    │    │    └─ReLU: 4-225                  [1, 256, 14, 14]          [1, 256, 14, 14]          --
│    │    │    └─Conv2d: 4-226                [1, 256, 14, 14]          [1, 1024, 14, 14]         262,144
│    │    │    └─BatchNorm2d: 4-227           [1, 1024, 14, 14]         [1, 1024, 14, 14]         2,048
│    │    │    └─ReLU: 4-228                  [1, 1024, 14, 14]         [1, 1024, 14, 14]         --
│    │    └─Bottleneck: 3-26                  [1, 1024, 14, 14]         [1, 1024, 14, 14]         --
│    │    │    └─Conv2d: 4-229                [1, 1024, 14, 14]         [1, 256, 14, 14]          262,144
│    │    │    └─BatchNorm2d: 4-230           [1, 256, 14, 14]          [1, 256, 14, 14]          512
│    │    │    └─ReLU: 4-231                  [1, 256, 14, 14]          [1, 256, 14, 14]          --
│    │    │    └─Conv2d: 4-232                [1, 256, 14, 14]          [1, 256, 14, 14]          589,824
│    │    │    └─BatchNorm2d: 4-233           [1, 256, 14, 14]          [1, 256, 14, 14]          512
│    │    │    └─ReLU: 4-234                  [1, 256, 14, 14]          [1, 256, 14, 14]          --
│    │    │    └─Conv2d: 4-235                [1, 256, 14, 14]          [1, 1024, 14, 14]         262,144
│    │    │    └─BatchNorm2d: 4-236           [1, 1024, 14, 14]         [1, 1024, 14, 14]         2,048
│    │    │    └─ReLU: 4-237                  [1, 1024, 14, 14]         [1, 1024, 14, 14]         --
│    │    └─Bottleneck: 3-27                  [1, 1024, 14, 14]         [1, 1024, 14, 14]         --
│    │    │    └─Conv2d: 4-238                [1, 1024, 14, 14]         [1, 256, 14, 14]          262,144
│    │    │    └─BatchNorm2d: 4-239           [1, 256, 14, 14]          [1, 256, 14, 14]          512
│    │    │    └─ReLU: 4-240                  [1, 256, 14, 14]          [1, 256, 14, 14]          --
│    │    │    └─Conv2d: 4-241                [1, 256, 14, 14]          [1, 256, 14, 14]          589,824
│    │    │    └─BatchNorm2d: 4-242           [1, 256, 14, 14]          [1, 256, 14, 14]          512
│    │    │    └─ReLU: 4-243                  [1, 256, 14, 14]          [1, 256, 14, 14]          --
│    │    │    └─Conv2d: 4-244                [1, 256, 14, 14]          [1, 1024, 14, 14]         262,144
│    │    │    └─BatchNorm2d: 4-245           [1, 1024, 14, 14]         [1, 1024, 14, 14]         2,048
│    │    │    └─ReLU: 4-246                  [1, 1024, 14, 14]         [1, 1024, 14, 14]         --
│    │    └─Bottleneck: 3-28                  [1, 1024, 14, 14]         [1, 1024, 14, 14]         --
│    │    │    └─Conv2d: 4-247                [1, 1024, 14, 14]         [1, 256, 14, 14]          262,144
│    │    │    └─BatchNorm2d: 4-248           [1, 256, 14, 14]          [1, 256, 14, 14]          512
│    │    │    └─ReLU: 4-249                  [1, 256, 14, 14]          [1, 256, 14, 14]          --
│    │    │    └─Conv2d: 4-250                [1, 256, 14, 14]          [1, 256, 14, 14]          589,824
│    │    │    └─BatchNorm2d: 4-251           [1, 256, 14, 14]          [1, 256, 14, 14]          512
│    │    │    └─ReLU: 4-252                  [1, 256, 14, 14]          [1, 256, 14, 14]          --
│    │    │    └─Conv2d: 4-253                [1, 256, 14, 14]          [1, 1024, 14, 14]         262,144
│    │    │    └─BatchNorm2d: 4-254           [1, 1024, 14, 14]         [1, 1024, 14, 14]         2,048
│    │    │    └─ReLU: 4-255                  [1, 1024, 14, 14]         [1, 1024, 14, 14]         --
│    │    └─Bottleneck: 3-29                  [1, 1024, 14, 14]         [1, 1024, 14, 14]         --
│    │    │    └─Conv2d: 4-256                [1, 1024, 14, 14]         [1, 256, 14, 14]          262,144
│    │    │    └─BatchNorm2d: 4-257           [1, 256, 14, 14]          [1, 256, 14, 14]          512
│    │    │    └─ReLU: 4-258                  [1, 256, 14, 14]          [1, 256, 14, 14]          --
│    │    │    └─Conv2d: 4-259                [1, 256, 14, 14]          [1, 256, 14, 14]          589,824
│    │    │    └─BatchNorm2d: 4-260           [1, 256, 14, 14]          [1, 256, 14, 14]          512
│    │    │    └─ReLU: 4-261                  [1, 256, 14, 14]          [1, 256, 14, 14]          --
│    │    │    └─Conv2d: 4-262                [1, 256, 14, 14]          [1, 1024, 14, 14]         262,144
│    │    │    └─BatchNorm2d: 4-263           [1, 1024, 14, 14]         [1, 1024, 14, 14]         2,048
│    │    │    └─ReLU: 4-264                  [1, 1024, 14, 14]         [1, 1024, 14, 14]         --
│    │    └─Bottleneck: 3-30                  [1, 1024, 14, 14]         [1, 1024, 14, 14]         --
│    │    │    └─Conv2d: 4-265                [1, 1024, 14, 14]         [1, 256, 14, 14]          262,144
│    │    │    └─BatchNorm2d: 4-266           [1, 256, 14, 14]          [1, 256, 14, 14]          512
│    │    │    └─ReLU: 4-267                  [1, 256, 14, 14]          [1, 256, 14, 14]          --
│    │    │    └─Conv2d: 4-268                [1, 256, 14, 14]          [1, 256, 14, 14]          589,824
│    │    │    └─BatchNorm2d: 4-269           [1, 256, 14, 14]          [1, 256, 14, 14]          512
│    │    │    └─ReLU: 4-270                  [1, 256, 14, 14]          [1, 256, 14, 14]          --
│    │    │    └─Conv2d: 4-271                [1, 256, 14, 14]          [1, 1024, 14, 14]         262,144
│    │    │    └─BatchNorm2d: 4-272           [1, 1024, 14, 14]         [1, 1024, 14, 14]         2,048
│    │    │    └─ReLU: 4-273                  [1, 1024, 14, 14]         [1, 1024, 14, 14]         --
│    └─Sequential: 2-8                        [1, 1024, 14, 14]         [1, 2048, 7, 7]           --
│    │    └─Bottleneck: 3-31                  [1, 1024, 14, 14]         [1, 2048, 7, 7]           --
│    │    │    └─Conv2d: 4-274                [1, 1024, 14, 14]         [1, 512, 14, 14]          524,288
│    │    │    └─BatchNorm2d: 4-275           [1, 512, 14, 14]          [1, 512, 14, 14]          1,024
│    │    │    └─ReLU: 4-276                  [1, 512, 14, 14]          [1, 512, 14, 14]          --
│    │    │    └─Conv2d: 4-277                [1, 512, 14, 14]          [1, 512, 7, 7]            2,359,296
│    │    │    └─BatchNorm2d: 4-278           [1, 512, 7, 7]            [1, 512, 7, 7]            1,024
│    │    │    └─ReLU: 4-279                  [1, 512, 7, 7]            [1, 512, 7, 7]            --
│    │    │    └─Conv2d: 4-280                [1, 512, 7, 7]            [1, 2048, 7, 7]           1,048,576
│    │    │    └─BatchNorm2d: 4-281           [1, 2048, 7, 7]           [1, 2048, 7, 7]           4,096
│    │    │    └─Sequential: 4-282            [1, 1024, 14, 14]         [1, 2048, 7, 7]           --
│    │    │    │    └─Conv2d: 5-7             [1, 1024, 14, 14]         [1, 2048, 7, 7]           2,097,152
│    │    │    │    └─BatchNorm2d: 5-8        [1, 2048, 7, 7]           [1, 2048, 7, 7]           4,096
│    │    │    └─ReLU: 4-283                  [1, 2048, 7, 7]           [1, 2048, 7, 7]           --
│    │    └─Bottleneck: 3-32                  [1, 2048, 7, 7]           [1, 2048, 7, 7]           --
│    │    │    └─Conv2d: 4-284                [1, 2048, 7, 7]           [1, 512, 7, 7]            1,048,576
│    │    │    └─BatchNorm2d: 4-285           [1, 512, 7, 7]            [1, 512, 7, 7]            1,024
│    │    │    └─ReLU: 4-286                  [1, 512, 7, 7]            [1, 512, 7, 7]            --
│    │    │    └─Conv2d: 4-287                [1, 512, 7, 7]            [1, 512, 7, 7]            2,359,296
│    │    │    └─BatchNorm2d: 4-288           [1, 512, 7, 7]            [1, 512, 7, 7]            1,024
│    │    │    └─ReLU: 4-289                  [1, 512, 7, 7]            [1, 512, 7, 7]            --
│    │    │    └─Conv2d: 4-290                [1, 512, 7, 7]            [1, 2048, 7, 7]           1,048,576
│    │    │    └─BatchNorm2d: 4-291           [1, 2048, 7, 7]           [1, 2048, 7, 7]           4,096
│    │    │    └─ReLU: 4-292                  [1, 2048, 7, 7]           [1, 2048, 7, 7]           --
│    │    └─Bottleneck: 3-33                  [1, 2048, 7, 7]           [1, 2048, 7, 7]           --
│    │    │    └─Conv2d: 4-293                [1, 2048, 7, 7]           [1, 512, 7, 7]            1,048,576
│    │    │    └─BatchNorm2d: 4-294           [1, 512, 7, 7]            [1, 512, 7, 7]            1,024
│    │    │    └─ReLU: 4-295                  [1, 512, 7, 7]            [1, 512, 7, 7]            --
│    │    │    └─Conv2d: 4-296                [1, 512, 7, 7]            [1, 512, 7, 7]            2,359,296
│    │    │    └─BatchNorm2d: 4-297           [1, 512, 7, 7]            [1, 512, 7, 7]            1,024
│    │    │    └─ReLU: 4-298                  [1, 512, 7, 7]            [1, 512, 7, 7]            --
│    │    │    └─Conv2d: 4-299                [1, 512, 7, 7]            [1, 2048, 7, 7]           1,048,576
│    │    │    └─BatchNorm2d: 4-300           [1, 2048, 7, 7]           [1, 2048, 7, 7]           4,096
│    │    │    └─ReLU: 4-301                  [1, 2048, 7, 7]           [1, 2048, 7, 7]           --
│    └─AdaptiveAvgPool2d: 2-9                 [1, 2048, 7, 7]           [1, 2048, 1, 1]           --
│    └─Linear: 2-10                           [1, 2048]                 [1, 2]                    4,098
========================================================================================================================
Total params: 42,497,986
Trainable params: 27,261,122
Non-trainable params: 15,236,864
Total mult-adds (G): 7.72
========================================================================================================================
Input size (MB): 0.20
Forward/backward pass size (MB): 259.71
…
