…
325: swin.norm.weight
326: swin.norm.bias
327: swin.head.weight
328: swin.head.bias
=============================================================


==================================================================================================================================
Layer (type:depth-idx)                                  Input Shape               Output Shape              Param #
==================================================================================================================================
SWIN                                                    [1, 1, 224, 224]          [1, 3]                    --
├─SwinTransformer: 1-1                                  [1, 1, 224, 224]          [1, 3]                    --
│    └─Sequential: 2-1                                  [1, 1, 224, 224]          [1, 7, 7, 768]            --
│    │    └─Sequential: 3-1                             [1, 1, 224, 224]          [1, 56, 56, 96]           --
│    │    │    └─Conv2d: 4-1                            [1, 1, 224, 224]          [1, 96, 56, 56]           1,632
│    │    │    └─Permute: 4-2                           [1, 96, 56, 56]           [1, 56, 56, 96]           --
│    │    │    └─LayerNorm: 4-3                         [1, 56, 56, 96]           [1, 56, 56, 96]           (192)
│    │    └─Sequential: 3-2                             [1, 56, 56, 96]           [1, 56, 56, 96]           --
│    │    │    └─SwinTransformerBlock: 4-4              [1, 56, 56, 96]           [1, 56, 56, 96]           --
│    │    │    │    └─LayerNorm: 5-1                    [1, 56, 56, 96]           [1, 56, 56, 96]           (192)
│    │    │    │    └─ShiftedWindowAttention: 5-2       [1, 56, 56, 96]           [1, 56, 56, 96]           37,755
│    │    │    │    └─StochasticDepth: 5-3              [1, 56, 56, 96]           [1, 56, 56, 96]           --
│    │    │    │    └─LayerNorm: 5-4                    [1, 56, 56, 96]           [1, 56, 56, 96]           (192)
│    │    │    │    └─MLP: 5-5                          [1, 56, 56, 96]           [1, 56, 56, 96]           --
│    │    │    │    │    └─Linear: 6-1                  [1, 56, 56, 96]           [1, 56, 56, 384]          (37,248)
│    │    │    │    │    └─GELU: 6-2                    [1, 56, 56, 384]          [1, 56, 56, 384]          --
│    │    │    │    │    └─Dropout: 6-3                 [1, 56, 56, 384]          [1, 56, 56, 384]          --
│    │    │    │    │    └─Linear: 6-4                  [1, 56, 56, 384]          [1, 56, 56, 96]           (36,960)
│    │    │    │    │    └─Dropout: 6-5                 [1, 56, 56, 96]           [1, 56, 56, 96]           --
│    │    │    │    └─StochasticDepth: 5-6              [1, 56, 56, 96]           [1, 56, 56, 96]           --
│    │    │    └─SwinTransformerBlock: 4-5              [1, 56, 56, 96]           [1, 56, 56, 96]           --
│    │    │    │    └─LayerNorm: 5-7                    [1, 56, 56, 96]           [1, 56, 56, 96]           (192)
│    │    │    │    └─ShiftedWindowAttention: 5-8       [1, 56, 56, 96]           [1, 56, 56, 96]           37,755
│    │    │    │    └─StochasticDepth: 5-9              [1, 56, 56, 96]           [1, 56, 56, 96]           --
│    │    │    │    └─LayerNorm: 5-10                   [1, 56, 56, 96]           [1, 56, 56, 96]           (192)
│    │    │    │    └─MLP: 5-11                         [1, 56, 56, 96]           [1, 56, 56, 96]           --
│    │    │    │    │    └─Linear: 6-6                  [1, 56, 56, 96]           [1, 56, 56, 384]          (37,248)
│    │    │    │    │    └─GELU: 6-7                    [1, 56, 56, 384]          [1, 56, 56, 384]          --
│    │    │    │    │    └─Dropout: 6-8                 [1, 56, 56, 384]          [1, 56, 56, 384]          --
│    │    │    │    │    └─Linear: 6-9                  [1, 56, 56, 384]          [1, 56, 56, 96]           (36,960)
│    │    │    │    │    └─Dropout: 6-10                [1, 56, 56, 96]           [1, 56, 56, 96]           --
│    │    │    │    └─StochasticDepth: 5-12             [1, 56, 56, 96]           [1, 56, 56, 96]           --
│    │    └─PatchMerging: 3-3                           [1, 56, 56, 96]           [1, 28, 28, 192]          --
│    │    │    └─LayerNorm: 4-6                         [1, 28, 28, 384]          [1, 28, 28, 384]          (768)
│    │    │    └─Linear: 4-7                            [1, 28, 28, 384]          [1, 28, 28, 192]          (73,728)
│    │    └─Sequential: 3-4                             [1, 28, 28, 192]          [1, 28, 28, 192]          --
│    │    │    └─SwinTransformerBlock: 4-8              [1, 28, 28, 192]          [1, 28, 28, 192]          --
│    │    │    │    └─LayerNorm: 5-13                   [1, 28, 28, 192]          [1, 28, 28, 192]          (384)
│    │    │    │    └─ShiftedWindowAttention: 5-14      [1, 28, 28, 192]          [1, 28, 28, 192]          149,238
│    │    │    │    └─StochasticDepth: 5-15             [1, 28, 28, 192]          [1, 28, 28, 192]          --
│    │    │    │    └─LayerNorm: 5-16                   [1, 28, 28, 192]          [1, 28, 28, 192]          (384)
│    │    │    │    └─MLP: 5-17                         [1, 28, 28, 192]          [1, 28, 28, 192]          --
│    │    │    │    │    └─Linear: 6-11                 [1, 28, 28, 192]          [1, 28, 28, 768]          (148,224)
│    │    │    │    │    └─GELU: 6-12                   [1, 28, 28, 768]          [1, 28, 28, 768]          --
│    │    │    │    │    └─Dropout: 6-13                [1, 28, 28, 768]          [1, 28, 28, 768]          --
│    │    │    │    │    └─Linear: 6-14                 [1, 28, 28, 768]          [1, 28, 28, 192]          (147,648)
│    │    │    │    │    └─Dropout: 6-15                [1, 28, 28, 192]          [1, 28, 28, 192]          --
│    │    │    │    └─StochasticDepth: 5-18             [1, 28, 28, 192]          [1, 28, 28, 192]          --
│    │    │    └─SwinTransformerBlock: 4-9              [1, 28, 28, 192]          [1, 28, 28, 192]          --
│    │    │    │    └─LayerNorm: 5-19                   [1, 28, 28, 192]          [1, 28, 28, 192]          (384)
│    │    │    │    └─ShiftedWindowAttention: 5-20      [1, 28, 28, 192]          [1, 28, 28, 192]          149,238
│    │    │    │    └─StochasticDepth: 5-21             [1, 28, 28, 192]          [1, 28, 28, 192]          --
│    │    │    │    └─LayerNorm: 5-22                   [1, 28, 28, 192]          [1, 28, 28, 192]          (384)
│    │    │    │    └─MLP: 5-23                         [1, 28, 28, 192]          [1, 28, 28, 192]          --
│    │    │    │    │    └─Linear: 6-16                 [1, 28, 28, 192]          [1, 28, 28, 768]          (148,224)
│    │    │    │    │    └─GELU: 6-17                   [1, 28, 28, 768]          [1, 28, 28, 768]          --
│    │    │    │    │    └─Dropout: 6-18                [1, 28, 28, 768]          [1, 28, 28, 768]          --
│    │    │    │    │    └─Linear: 6-19                 [1, 28, 28, 768]          [1, 28, 28, 192]          (147,648)
│    │    │    │    │    └─Dropout: 6-20                [1, 28, 28, 192]          [1, 28, 28, 192]          --
│    │    │    │    └─StochasticDepth: 5-24             [1, 28, 28, 192]          [1, 28, 28, 192]          --
│    │    └─PatchMerging: 3-5                           [1, 28, 28, 192]          [1, 14, 14, 384]          --
│    │    │    └─LayerNorm: 4-10                        [1, 14, 14, 768]          [1, 14, 14, 768]          (1,536)
│    │    │    └─Linear: 4-11                           [1, 14, 14, 768]          [1, 14, 14, 384]          (294,912)
│    │    └─Sequential: 3-6                             [1, 14, 14, 384]          [1, 14, 14, 384]          --
│    │    │    └─SwinTransformerBlock: 4-12             [1, 14, 14, 384]          [1, 14, 14, 384]          --
│    │    │    │    └─LayerNorm: 5-25                   [1, 14, 14, 384]          [1, 14, 14, 384]          768
│    │    │    │    └─ShiftedWindowAttention: 5-26      [1, 14, 14, 384]          [1, 14, 14, 384]          593,388
│    │    │    │    └─StochasticDepth: 5-27             [1, 14, 14, 384]          [1, 14, 14, 384]          --
│    │    │    │    └─LayerNorm: 5-28                   [1, 14, 14, 384]          [1, 14, 14, 384]          768
│    │    │    │    └─MLP: 5-29                         [1, 14, 14, 384]          [1, 14, 14, 384]          --
│    │    │    │    │    └─Linear: 6-21                 [1, 14, 14, 384]          [1, 14, 14, 1536]         591,360
│    │    │    │    │    └─GELU: 6-22                   [1, 14, 14, 1536]         [1, 14, 14, 1536]         --
│    │    │    │    │    └─Dropout: 6-23                [1, 14, 14, 1536]         [1, 14, 14, 1536]         --
│    │    │    │    │    └─Linear: 6-24                 [1, 14, 14, 1536]         [1, 14, 14, 384]          590,208
│    │    │    │    │    └─Dropout: 6-25                [1, 14, 14, 384]          [1, 14, 14, 384]          --
│    │    │    │    └─StochasticDepth: 5-30             [1, 14, 14, 384]          [1, 14, 14, 384]          --
│    │    │    └─SwinTransformerBlock: 4-13             [1, 14, 14, 384]          [1, 14, 14, 384]          --
│    │    │    │    └─LayerNorm: 5-31                   [1, 14, 14, 384]          [1, 14, 14, 384]          768
│    │    │    │    └─ShiftedWindowAttention: 5-32      [1, 14, 14, 384]          [1, 14, 14, 384]          593,388
│    │    │    │    └─StochasticDepth: 5-33             [1, 14, 14, 384]          [1, 14, 14, 384]          --
│    │    │    │    └─LayerNorm: 5-34                   [1, 14, 14, 384]          [1, 14, 14, 384]          768
│    │    │    │    └─MLP: 5-35                         [1, 14, 14, 384]          [1, 14, 14, 384]          --
│    │    │    │    │    └─Linear: 6-26                 [1, 14, 14, 384]          [1, 14, 14, 1536]         591,360
│    │    │    │    │    └─GELU: 6-27                   [1, 14, 14, 1536]         [1, 14, 14, 1536]         --
│    │    │    │    │    └─Dropout: 6-28                [1, 14, 14, 1536]         [1, 14, 14, 1536]         --
│    │    │    │    │    └─Linear: 6-29                 [1, 14, 14, 1536]         [1, 14, 14, 384]          590,208
│    │    │    │    │    └─Dropout: 6-30                [1, 14, 14, 384]          [1, 14, 14, 384]          --
│    │    │    │    └─StochasticDepth: 5-36             [1, 14, 14, 384]          [1, 14, 14, 384]          --
│    │    │    └─SwinTransformerBlock: 4-14             [1, 14, 14, 384]          [1, 14, 14, 384]          --
│    │    │    │    └─LayerNorm: 5-37                   [1, 14, 14, 384]          [1, 14, 14, 384]          768
│    │    │    │    └─ShiftedWindowAttention: 5-38      [1, 14, 14, 384]          [1, 14, 14, 384]          593,388
│    │    │    │    └─StochasticDepth: 5-39             [1, 14, 14, 384]          [1, 14, 14, 384]          --
│    │    │    │    └─LayerNorm: 5-40                   [1, 14, 14, 384]          [1, 14, 14, 384]          768
│    │    │    │    └─MLP: 5-41                         [1, 14, 14, 384]          [1, 14, 14, 384]          --
│    │    │    │    │    └─Linear: 6-31                 [1, 14, 14, 384]          [1, 14, 14, 1536]         591,360
│    │    │    │    │    └─GELU: 6-32                   [1, 14, 14, 1536]         [1, 14, 14, 1536]         --
│    │    │    │    │    └─Dropout: 6-33                [1, 14, 14, 1536]         [1, 14, 14, 1536]         --
│    │    │    │    │    └─Linear: 6-34                 [1, 14, 14, 1536]         [1, 14, 14, 384]          590,208
│    │    │    │    │    └─Dropout: 6-35                [1, 14, 14, 384]          [1, 14, 14, 384]          --
│    │    │    │    └─StochasticDepth: 5-42             [1, 14, 14, 384]          [1, 14, 14, 384]          --
│    │    │    └─SwinTransformerBlock: 4-15             [1, 14, 14, 384]          [1, 14, 14, 384]          --
│    │    │    │    └─LayerNorm: 5-43                   [1, 14, 14, 384]          [1, 14, 14, 384]          768
│    │    │    │    └─ShiftedWindowAttention: 5-44      [1, 14, 14, 384]          [1, 14, 14, 384]          593,388
│    │    │    │    └─StochasticDepth: 5-45             [1, 14, 14, 384]          [1, 14, 14, 384]          --
│    │    │    │    └─LayerNorm: 5-46                   [1, 14, 14, 384]          [1, 14, 14, 384]          768
│    │    │    │    └─MLP: 5-47                         [1, 14, 14, 384]          [1, 14, 14, 384]          --
│    │    │    │    │    └─Linear: 6-36                 [1, 14, 14, 384]          [1, 14, 14, 1536]         591,360
│    │    │    │    │    └─GELU: 6-37                   [1, 14, 14, 1536]         [1, 14, 14, 1536]         --
│    │    │    │    │    └─Dropout: 6-38                [1, 14, 14, 1536]         [1, 14, 14, 1536]         --
│    │    │    │    │    └─Linear: 6-39                 [1, 14, 14, 1536]         [1, 14, 14, 384]          590,208
│    │    │    │    │    └─Dropout: 6-40                [1, 14, 14, 384]          [1, 14, 14, 384]          --
│    │    │    │    └─StochasticDepth: 5-48             [1, 14, 14, 384]          [1, 14, 14, 384]          --
│    │    │    └─SwinTransformerBlock: 4-16             [1, 14, 14, 384]          [1, 14, 14, 384]          --
│    │    │    │    └─LayerNorm: 5-49                   [1, 14, 14, 384]          [1, 14, 14, 384]          768
│    │    │    │    └─ShiftedWindowAttention: 5-50      [1, 14, 14, 384]          [1, 14, 14, 384]          593,388
│    │    │    │    └─StochasticDepth: 5-51             [1, 14, 14, 384]          [1, 14, 14, 384]          --
│    │    │    │    └─LayerNorm: 5-52                   [1, 14, 14, 384]          [1, 14, 14, 384]          768
│    │    │    │    └─MLP: 5-53                         [1, 14, 14, 384]          [1, 14, 14, 384]          --
│    │    │    │    │    └─Linear: 6-41                 [1, 14, 14, 384]          [1, 14, 14, 1536]         591,360
│    │    │    │    │    └─GELU: 6-42                   [1, 14, 14, 1536]         [1, 14, 14, 1536]         --
│    │    │    │    │    └─Dropout: 6-43                [1, 14, 14, 1536]         [1, 14, 14, 1536]         --
│    │    │    │    │    └─Linear: 6-44                 [1, 14, 14, 1536]         [1, 14, 14, 384]          590,208
│    │    │    │    │    └─Dropout: 6-45                [1, 14, 14, 384]          [1, 14, 14, 384]          --
│    │    │    │    └─StochasticDepth: 5-54             [1, 14, 14, 384]          [1, 14, 14, 384]          --
│    │    │    └─SwinTransformerBlock: 4-17             [1, 14, 14, 384]          [1, 14, 14, 384]          --
│    │    │    │    └─LayerNorm: 5-55                   [1, 14, 14, 384]          [1, 14, 14, 384]          768
│    │    │    │    └─ShiftedWindowAttention: 5-56      [1, 14, 14, 384]          [1, 14, 14, 384]          593,388
│    │    │    │    └─StochasticDepth: 5-57             [1, 14, 14, 384]          [1, 14, 14, 384]          --
│    │    │    │    └─LayerNorm: 5-58                   [1, 14, 14, 384]          [1, 14, 14, 384]          768
│    │    │    │    └─MLP: 5-59                         [1, 14, 14, 384]          [1, 14, 14, 384]          --
│    │    │    │    │    └─Linear: 6-46                 [1, 14, 14, 384]          [1, 14, 14, 1536]         591,360
│    │    │    │    │    └─GELU: 6-47                   [1, 14, 14, 1536]         [1, 14, 14, 1536]         --
│    │    │    │    │    └─Dropout: 6-48                [1, 14, 14, 1536]         [1, 14, 14, 1536]         --
│    │    │    │    │    └─Linear: 6-49                 [1, 14, 14, 1536]         [1, 14, 14, 384]          590,208
│    │    │    │    │    └─Dropout: 6-50                [1, 14, 14, 384]          [1, 14, 14, 384]          --
│    │    │    │    └─StochasticDepth: 5-60             [1, 14, 14, 384]          [1, 14, 14, 384]          --
│    │    │    └─SwinTransformerBlock: 4-18             [1, 14, 14, 384]          [1, 14, 14, 384]          --
│    │    │    │    └─LayerNorm: 5-61                   [1, 14, 14, 384]          [1, 14, 14, 384]          768
│    │    │    │    └─ShiftedWindowAttention: 5-62      [1, 14, 14, 384]          [1, 14, 14, 384]          593,388
│    │    │    │    └─StochasticDepth: 5-63             [1, 14, 14, 384]          [1, 14, 14, 384]          --
│    │    │    │    └─LayerNorm: 5-64                   [1, 14, 14, 384]          [1, 14, 14, 384]          768
│    │    │    │    └─MLP: 5-65                         [1, 14, 14, 384]          [1, 14, 14, 384]          --
│    │    │    │    │    └─Linear: 6-51                 [1, 14, 14, 384]          [1, 14, 14, 1536]         591,360
│    │    │    │    │    └─GELU: 6-52                   [1, 14, 14, 1536]         [1, 14, 14, 1536]         --
│    │    │    │    │    └─Dropout: 6-53                [1, 14, 14, 1536]         [1, 14, 14, 1536]         --
│    │    │    │    │    └─Linear: 6-54                 [1, 14, 14, 1536]         [1, 14, 14, 384]          590,208
│    │    │    │    │    └─Dropout: 6-55                [1, 14, 14, 384]          [1, 14, 14, 384]          --
│    │    │    │    └─StochasticDepth: 5-66             [1, 14, 14, 384]          [1, 14, 14, 384]          --
│    │    │    └─SwinTransformerBlock: 4-19             [1, 14, 14, 384]          [1, 14, 14, 384]          --
│    │    │    │    └─LayerNorm: 5-67                   [1, 14, 14, 384]          [1, 14, 14, 384]          768
│    │    │    │    └─ShiftedWindowAttention: 5-68      [1, 14, 14, 384]          [1, 14, 14, 384]          593,388
│    │    │    │    └─StochasticDepth: 5-69             [1, 14, 14, 384]          [1, 14, 14, 384]          --
│    │    │    │    └─LayerNorm: 5-70                   [1, 14, 14, 384]          [1, 14, 14, 384]          768
│    │    │    │    └─MLP: 5-71                         [1, 14, 14, 384]          [1, 14, 14, 384]          --
│    │    │    │    │    └─Linear: 6-56                 [1, 14, 14, 384]          [1, 14, 14, 1536]         591,360
│    │    │    │    │    └─GELU: 6-57                   [1, 14, 14, 1536]         [1, 14, 14, 1536]         --
│    │    │    │    │    └─Dropout: 6-58                [1, 14, 14, 1536]         [1, 14, 14, 1536]         --
│    │    │    │    │    └─Linear: 6-59                 [1, 14, 14, 1536]         [1, 14, 14, 384]          590,208
│    │    │    │    │    └─Dropout: 6-60                [1, 14, 14, 384]          [1, 14, 14, 384]          --
│    │    │    │    └─StochasticDepth: 5-72             [1, 14, 14, 384]          [1, 14, 14, 384]          --
│    │    │    └─SwinTransformerBlock: 4-20             [1, 14, 14, 384]          [1, 14, 14, 384]          --
│    │    │    │    └─LayerNorm: 5-73                   [1, 14, 14, 384]          [1, 14, 14, 384]          768
│    │    │    │    └─ShiftedWindowAttention: 5-74      [1, 14, 14, 384]          [1, 14, 14, 384]          593,388
│    │    │    │    └─StochasticDepth: 5-75             [1, 14, 14, 384]          [1, 14, 14, 384]          --
│    │    │    │    └─LayerNorm: 5-76                   [1, 14, 14, 384]          [1, 14, 14, 384]          768
│    │    │    │    └─MLP: 5-77                         [1, 14, 14, 384]          [1, 14, 14, 384]          --
│    │    │    │    │    └─Linear: 6-61                 [1, 14, 14, 384]          [1, 14, 14, 1536]         591,360
│    │    │    │    │    └─GELU: 6-62                   [1, 14, 14, 1536]         [1, 14, 14, 1536]         --
│    │    │    │    │    └─Dropout: 6-63                [1, 14, 14, 1536]         [1, 14, 14, 1536]         --
│    │    │    │    │    └─Linear: 6-64                 [1, 14, 14, 1536]         [1, 14, 14, 384]          590,208
│    │    │    │    │    └─Dropout: 6-65                [1, 14, 14, 384]          [1, 14, 14, 384]          --
│    │    │    │    └─StochasticDepth: 5-78             [1, 14, 14, 384]          [1, 14, 14, 384]          --
│    │    │    └─SwinTransformerBlock: 4-21             [1, 14, 14, 384]          [1, 14, 14, 384]          --
│    │    │    │    └─LayerNorm: 5-79                   [1, 14, 14, 384]          [1, 14, 14, 384]          768
│    │    │    │    └─ShiftedWindowAttention: 5-80      [1, 14, 14, 384]          [1, 14, 14, 384]          593,388
│    │    │    │    └─StochasticDepth: 5-81             [1, 14, 14, 384]          [1, 14, 14, 384]          --
│    │    │    │    └─LayerNorm: 5-82                   [1, 14, 14, 384]          [1, 14, 14, 384]          768
│    │    │    │    └─MLP: 5-83                         [1, 14, 14, 384]          [1, 14, 14, 384]          --
│    │    │    │    │    └─Linear: 6-66                 [1, 14, 14, 384]          [1, 14, 14, 1536]         591,360
│    │    │    │    │    └─GELU: 6-67                   [1, 14, 14, 1536]         [1, 14, 14, 1536]         --
│    │    │    │    │    └─Dropout: 6-68                [1, 14, 14, 1536]         [1, 14, 14, 1536]         --
│    │    │    │    │    └─Linear: 6-69                 [1, 14, 14, 1536]         [1, 14, 14, 384]          590,208
│    │    │    │    │    └─Dropout: 6-70                [1, 14, 14, 384]          [1, 14, 14, 384]          --
│    │    │    │    └─StochasticDepth: 5-84             [1, 14, 14, 384]          [1, 14, 14, 384]          --
│    │    │    └─SwinTransformerBlock: 4-22             [1, 14, 14, 384]          [1, 14, 14, 384]          --
│    │    │    │    └─LayerNorm: 5-85                   [1, 14, 14, 384]          [1, 14, 14, 384]          768
│    │    │    │    └─ShiftedWindowAttention: 5-86      [1, 14, 14, 384]          [1, 14, 14, 384]          593,388
│    │    │    │    └─StochasticDepth: 5-87             [1, 14, 14, 384]          [1, 14, 14, 384]          --
│    │    │    │    └─LayerNorm: 5-88                   [1, 14, 14, 384]          [1, 14, 14, 384]          768
│    │    │    │    └─MLP: 5-89                         [1, 14, 14, 384]          [1, 14, 14, 384]          --
│    │    │    │    │    └─Linear: 6-71                 [1, 14, 14, 384]          [1, 14, 14, 1536]         591,360
│    │    │    │    │    └─GELU: 6-72                   [1, 14, 14, 1536]         [1, 14, 14, 1536]         --
│    │    │    │    │    └─Dropout: 6-73                [1, 14, 14, 1536]         [1, 14, 14, 1536]         --
│    │    │    │    │    └─Linear: 6-74                 [1, 14, 14, 1536]         [1, 14, 14, 384]          590,208
│    │    │    │    │    └─Dropout: 6-75                [1, 14, 14, 384]          [1, 14, 14, 384]          --
│    │    │    │    └─StochasticDepth: 5-90             [1, 14, 14, 384]          [1, 14, 14, 384]          --
│    │    │    └─SwinTransformerBlock: 4-23             [1, 14, 14, 384]          [1, 14, 14, 384]          --
│    │    │    │    └─LayerNorm: 5-91                   [1, 14, 14, 384]          [1, 14, 14, 384]          768
│    │    │    │    └─ShiftedWindowAttention: 5-92      [1, 14, 14, 384]          [1, 14, 14, 384]          593,388
│    │    │    │    └─StochasticDepth: 5-93             [1, 14, 14, 384]          [1, 14, 14, 384]          --
│    │    │    │    └─LayerNorm: 5-94                   [1, 14, 14, 384]          [1, 14, 14, 384]          768
│    │    │    │    └─MLP: 5-95                         [1, 14, 14, 384]          [1, 14, 14, 384]          --
│    │    │    │    │    └─Linear: 6-76                 [1, 14, 14, 384]          [1, 14, 14, 1536]         591,360
│    │    │    │    │    └─GELU: 6-77                   [1, 14, 14, 1536]         [1, 14, 14, 1536]         --
│    │    │    │    │    └─Dropout: 6-78                [1, 14, 14, 1536]         [1, 14, 14, 1536]         --
│    │    │    │    │    └─Linear: 6-79                 [1, 14, 14, 1536]         [1, 14, 14, 384]          590,208
│    │    │    │    │    └─Dropout: 6-80                [1, 14, 14, 384]          [1, 14, 14, 384]          --
│    │    │    │    └─StochasticDepth: 5-96             [1, 14, 14, 384]          [1, 14, 14, 384]          --
│    │    │    └─SwinTransformerBlock: 4-24             [1, 14, 14, 384]          [1, 14, 14, 384]          --
│    │    │    │    └─LayerNorm: 5-97                   [1, 14, 14, 384]          [1, 14, 14, 384]          768
│    │    │    │    └─ShiftedWindowAttention: 5-98      [1, 14, 14, 384]          [1, 14, 14, 384]          593,388
│    │    │    │    └─StochasticDepth: 5-99             [1, 14, 14, 384]          [1, 14, 14, 384]          --
│    │    │    │    └─LayerNorm: 5-100                  [1, 14, 14, 384]          [1, 14, 14, 384]          768
│    │    │    │    └─MLP: 5-101                        [1, 14, 14, 384]          [1, 14, 14, 384]          --
│    │    │    │    │    └─Linear: 6-81                 [1, 14, 14, 384]          [1, 14, 14, 1536]         591,360
│    │    │    │    │    └─GELU: 6-82                   [1, 14, 14, 1536]         [1, 14, 14, 1536]         --
│    │    │    │    │    └─Dropout: 6-83                [1, 14, 14, 1536]         [1, 14, 14, 1536]         --
│    │    │    │    │    └─Linear: 6-84                 [1, 14, 14, 1536]         [1, 14, 14, 384]          590,208
│    │    │    │    │    └─Dropout: 6-85                [1, 14, 14, 384]          [1, 14, 14, 384]          --
│    │    │    │    └─StochasticDepth: 5-102            [1, 14, 14, 384]          [1, 14, 14, 384]          --
│    │    │    └─SwinTransformerBlock: 4-25             [1, 14, 14, 384]          [1, 14, 14, 384]          --
│    │    │    │    └─LayerNorm: 5-103                  [1, 14, 14, 384]          [1, 14, 14, 384]          768
│    │    │    │    └─ShiftedWindowAttention: 5-104     [1, 14, 14, 384]          [1, 14, 14, 384]          593,388
│    │    │    │    └─StochasticDepth: 5-105            [1, 14, 14, 384]          [1, 14, 14, 384]          --
│    │    │    │    └─LayerNorm: 5-106                  [1, 14, 14, 384]          [1, 14, 14, 384]          768
│    │    │    │    └─MLP: 5-107                        [1, 14, 14, 384]          [1, 14, 14, 384]          --
│    │    │    │    │    └─Linear: 6-86                 [1, 14, 14, 384]          [1, 14, 14, 1536]         591,360
│    │    │    │    │    └─GELU: 6-87                   [1, 14, 14, 1536]         [1, 14, 14, 1536]         --
│    │    │    │    │    └─Dropout: 6-88                [1, 14, 14, 1536]         [1, 14, 14, 1536]         --
│    │    │    │    │    └─Linear: 6-89                 [1, 14, 14, 1536]         [1, 14, 14, 384]          590,208
│    │    │    │    │    └─Dropout: 6-90                [1, 14, 14, 384]          [1, 14, 14, 384]          --
│    │    │    │    └─StochasticDepth: 5-108            [1, 14, 14, 384]          [1, 14, 14, 384]          --
│    │    │    └─SwinTransformerBlock: 4-26             [1, 14, 14, 384]          [1, 14, 14, 384]          --
│    │    │    │    └─LayerNorm: 5-109                  [1, 14, 14, 384]          [1, 14, 14, 384]          768
│    │    │    │    └─ShiftedWindowAttention: 5-110     [1, 14, 14, 384]          [1, 14, 14, 384]          593,388
│    │    │    │    └─StochasticDepth: 5-111            [1, 14, 14, 384]          [1, 14, 14, 384]          --
│    │    │    │    └─LayerNorm: 5-112                  [1, 14, 14, 384]          [1, 14, 14, 384]          768
│    │    │    │    └─MLP: 5-113                        [1, 14, 14, 384]          [1, 14, 14, 384]          --
│    │    │    │    │    └─Linear: 6-91                 [1, 14, 14, 384]          [1, 14, 14, 1536]         591,360
│    │    │    │    │    └─GELU: 6-92                   [1, 14, 14, 1536]         [1, 14, 14, 1536]         --
│    │    │    │    │    └─Dropout: 6-93                [1, 14, 14, 1536]         [1, 14, 14, 1536]         --
│    │    │    │    │    └─Linear: 6-94                 [1, 14, 14, 1536]         [1, 14, 14, 384]          590,208
│    │    │    │    │    └─Dropout: 6-95                [1, 14, 14, 384]          [1, 14, 14, 384]          --
│    │    │    │    └─StochasticDepth: 5-114            [1, 14, 14, 384]          [1, 14, 14, 384]          --
│    │    │    └─SwinTransformerBlock: 4-27             [1, 14, 14, 384]          [1, 14, 14, 384]          --
│    │    │    │    └─LayerNorm: 5-115                  [1, 14, 14, 384]          [1, 14, 14, 384]          768
│    │    │    │    └─ShiftedWindowAttention: 5-116     [1, 14, 14, 384]          [1, 14, 14, 384]          593,388
│    │    │    │    └─StochasticDepth: 5-117            [1, 14, 14, 384]          [1, 14, 14, 384]          --
│    │    │    │    └─LayerNorm: 5-118                  [1, 14, 14, 384]          [1, 14, 14, 384]          768
│    │    │    │    └─MLP: 5-119                        [1, 14, 14, 384]          [1, 14, 14, 384]          --
│    │    │    │    │    └─Linear: 6-96                 [1, 14, 14, 384]          [1, 14, 14, 1536]         591,360
│    │    │    │    │    └─GELU: 6-97                   [1, 14, 14, 1536]         [1, 14, 14, 1536]         --
│    │    │    │    │    └─Dropout: 6-98                [1, 14, 14, 1536]         [1, 14, 14, 1536]         --
│    │    │    │    │    └─Linear: 6-99                 [1, 14, 14, 1536]         [1, 14, 14, 384]          590,208
│    │    │    │    │    └─Dropout: 6-100               [1, 14, 14, 384]          [1, 14, 14, 384]          --
│    │    │    │    └─StochasticDepth: 5-120            [1, 14, 14, 384]          [1, 14, 14, 384]          --
│    │    │    └─SwinTransformerBlock: 4-28             [1, 14, 14, 384]          [1, 14, 14, 384]          --
│    │    │    │    └─LayerNorm: 5-121                  [1, 14, 14, 384]          [1, 14, 14, 384]          768
│    │    │    │    └─ShiftedWindowAttention: 5-122     [1, 14, 14, 384]          [1, 14, 14, 384]          593,388
│    │    │    │    └─StochasticDepth: 5-123            [1, 14, 14, 384]          [1, 14, 14, 384]          --
│    │    │    │    └─LayerNorm: 5-124                  [1, 14, 14, 384]          [1, 14, 14, 384]          768
│    │    │    │    └─MLP: 5-125                        [1, 14, 14, 384]          [1, 14, 14, 384]          --
│    │    │    │    │    └─Linear: 6-101                [1, 14, 14, 384]          [1, 14, 14, 1536]         591,360
│    │    │    │    │    └─GELU: 6-102                  [1, 14, 14, 1536]         [1, 14, 14, 1536]         --
│    │    │    │    │    └─Dropout: 6-103               [1, 14, 14, 1536]         [1, 14, 14, 1536]         --
│    │    │    │    │    └─Linear: 6-104                [1, 14, 14, 1536]         [1, 14, 14, 384]          590,208
│    │    │    │    │    └─Dropout: 6-105               [1, 14, 14, 384]          [1, 14, 14, 384]          --
│    │    │    │    └─StochasticDepth: 5-126            [1, 14, 14, 384]          [1, 14, 14, 384]          --
│    │    │    └─SwinTransformerBlock: 4-29             [1, 14, 14, 384]          [1, 14, 14, 384]          --
│    │    │    │    └─LayerNorm: 5-127                  [1, 14, 14, 384]          [1, 14, 14, 384]          768
│    │    │    │    └─ShiftedWindowAttention: 5-128     [1, 14, 14, 384]          [1, 14, 14, 384]          593,388
│    │    │    │    └─StochasticDepth: 5-129            [1, 14, 14, 384]          [1, 14, 14, 384]          --
│    │    │    │    └─LayerNorm: 5-130                  [1, 14, 14, 384]          [1, 14, 14, 384]          768
│    │    │    │    └─MLP: 5-131                        [1, 14, 14, 384]          [1, 14, 14, 384]          --
│    │    │    │    │    └─Linear: 6-106                [1, 14, 14, 384]          [1, 14, 14, 1536]         591,360
│    │    │    │    │    └─GELU: 6-107                  [1, 14, 14, 1536]         [1, 14, 14, 1536]         --
│    │    │    │    │    └─Dropout: 6-108               [1, 14, 14, 1536]         [1, 14, 14, 1536]         --
│    │    │    │    │    └─Linear: 6-109                [1, 14, 14, 1536]         [1, 14, 14, 384]          590,208
│    │    │    │    │    └─Dropout: 6-110               [1, 14, 14, 384]          [1, 14, 14, 384]          --
│    │    │    │    └─StochasticDepth: 5-132            [1, 14, 14, 384]          [1, 14, 14, 384]          --
│    │    └─PatchMerging: 3-7                           [1, 14, 14, 384]          [1, 7, 7, 768]            --
│    │    │    └─LayerNorm: 4-30                        [1, 7, 7, 1536]           [1, 7, 7, 1536]           3,072
│    │    │    └─Linear: 4-31                           [1, 7, 7, 1536]           [1, 7, 7, 768]            1,179,648
│    │    └─Sequential: 3-8                             [1, 7, 7, 768]            [1, 7, 7, 768]            --
│    │    │    └─SwinTransformerBlock: 4-32             [1, 7, 7, 768]            [1, 7, 7, 768]            --
│    │    │    │    └─LayerNorm: 5-133                  [1, 7, 7, 768]            [1, 7, 7, 768]            1,536
│    │    │    │    └─ShiftedWindowAttention: 5-134     [1, 7, 7, 768]            [1, 7, 7, 768]            2,366,424
│    │    │    │    └─StochasticDepth: 5-135            [1, 7, 7, 768]            [1, 7, 7, 768]            --
│    │    │    │    └─LayerNorm: 5-136                  [1, 7, 7, 768]            [1, 7, 7, 768]            1,536
│    │    │    │    └─MLP: 5-137                        [1, 7, 7, 768]            [1, 7, 7, 768]            --
│    │    │    │    │    └─Linear: 6-111                [1, 7, 7, 768]            [1, 7, 7, 3072]           2,362,368
│    │    │    │    │    └─GELU: 6-112                  [1, 7, 7, 3072]           [1, 7, 7, 3072]           --
│    │    │    │    │    └─Dropout: 6-113               [1, 7, 7, 3072]           [1, 7, 7, 3072]           --
│    │    │    │    │    └─Linear: 6-114                [1, 7, 7, 3072]           [1, 7, 7, 768]            2,360,064
│    │    │    │    │    └─Dropout: 6-115               [1, 7, 7, 768]            [1, 7, 7, 768]            --
│    │    │    │    └─StochasticDepth: 5-138            [1, 7, 7, 768]            [1, 7, 7, 768]            --
│    │    │    └─SwinTransformerBlock: 4-33             [1, 7, 7, 768]            [1, 7, 7, 768]            --
│    │    │    │    └─LayerNorm: 5-139                  [1, 7, 7, 768]            [1, 7, 7, 768]            1,536
│    │    │    │    └─ShiftedWindowAttention: 5-140     [1, 7, 7, 768]            [1, 7, 7, 768]            2,366,424
│    │    │    │    └─StochasticDepth: 5-141            [1, 7, 7, 768]            [1, 7, 7, 768]            --
│    │    │    │    └─LayerNorm: 5-142                  [1, 7, 7, 768]            [1, 7, 7, 768]            1,536
│    │    │    │    └─MLP: 5-143                        [1, 7, 7, 768]            [1, 7, 7, 768]            --
│    │    │    │    │    └─Linear: 6-116                [1, 7, 7, 768]            [1, 7, 7, 3072]           2,362,368
│    │    │    │    │    └─GELU: 6-117                  [1, 7, 7, 3072]           [1, 7, 7, 3072]           --
│    │    │    │    │    └─Dropout: 6-118               [1, 7, 7, 3072]           [1, 7, 7, 3072]           --
│    │    │    │    │    └─Linear: 6-119                [1, 7, 7, 3072]           [1, 7, 7, 768]            2,360,064
│    │    │    │    │    └─Dropout: 6-120               [1, 7, 7, 768]            [1, 7, 7, 768]            --
│    │    │    │    └─StochasticDepth: 5-144            [1, 7, 7, 768]            [1, 7, 7, 768]            --
│    └─LayerNorm: 2-2                                   [1, 7, 7, 768]            [1, 7, 7, 768]            1,536
│    └─Permute: 2-3                                     [1, 7, 7, 768]            [1, 768, 7, 7]            --
│    └─AdaptiveAvgPool2d: 2-4                           [1, 768, 7, 7]            [1, 768, 1, 1]            --
│    └─Flatten: 2-5                                     [1, 768, 1, 1]            [1, 768]                  --
│    └─Linear: 2-6                                      [1, 768]                  [1, 3]                    2,307
==================================================================================================================================
Total params: 48,836,493
Trainable params: 47,348,907
Non-trainable params: 1,487,586
Total mult-adds (M): 38.16
==================================================================================================================================
Input size (MB): 0.20
Forward/backward pass size (MB): 142.10
…
