…
169: swint.norm.weight
170: swint.norm.bias
171: swint.head.weight
172: swint.head.bias
=============================================================


==================================================================================================================================
Layer (type:depth-idx)                                  Input Shape               Output Shape              Param #
==================================================================================================================================
SWIN_T                                                  [1, 1, 224, 224]          [1, 3]                    --
├─SwinTransformer: 1-1                                  [1, 1, 224, 224]          [1, 3]                    --
│    └─Sequential: 2-1                                  [1, 1, 224, 224]          [1, 7, 7, 768]            --
│    │    └─Sequential: 3-1                             [1, 1, 224, 224]          [1, 56, 56, 96]           1,824
│    │    └─Sequential: 3-2                             [1, 56, 56, 96]           [1, 56, 56, 96]           224,694
│    │    └─PatchMerging: 3-3                           [1, 56, 56, 96]           [1, 28, 28, 192]          74,496
│    │    └─Sequential: 3-4                             [1, 28, 28, 192]          [1, 28, 28, 192]          891,756
│    │    └─PatchMerging: 3-5                           [1, 28, 28, 192]          [1, 14, 14, 384]          296,448
│    │    └─Sequential: 3-6                             [1, 14, 14, 384]          [1, 14, 14, 384]          10,658,952
│    │    └─PatchMerging: 3-7                           [1, 14, 14, 384]          [1, 7, 7, 768]            1,182,720
│    │    └─Sequential: 3-8                             [1, 7, 7, 768]            [1, 7, 7, 768]            14,183,856
│    └─LayerNorm: 2-2                                   [1, 7, 7, 768]            [1, 7, 7, 768]            1,536
│    └─Permute: 2-3                                     [1, 7, 7, 768]            [1, 768, 7, 7]            --
│    └─AdaptiveAvgPool2d: 2-4                           [1, 768, 7, 7]            [1, 768, 1, 1]            --
│    └─Flatten: 2-5                                     [1, 768, 1, 1]            [1, 768]                  --
│    └─Linear: 2-6                                      [1, 768]                  [1, 3]                    2,307
==================================================================================================================================
Total params: 27,518,589
Trainable params: 27,518,589
Non-trainable params: 0
Total mult-adds (M): 23.97
==================================================================================================================================
Input size (MB): 0.20
Forward/backward pass size (MB): 91.52
…
