…
149: vitb16.encoder.ln.bias	(freezed till here)
150: vitb16.heads.0.weight	(freezed till here)
151: vitb16.heads.0.bias	(freezed till here)
=============================================================


=============================================================================================================================
Layer (type:depth-idx)                             Input Shape               Output Shape              Param #
=============================================================================================================================
VIT_B16                                            [1, 1, 224, 224]          [1, 3]                    --
├─VisionTransformer: 1-1                           [1, 1, 224, 224]          [1, 3]                    768
│    └─Conv2d: 2-1                                 [1, 1, 224, 224]          [1, 768, 14, 14]          197,376
│    └─Encoder: 2-2                                [1, 197, 768]             [1, 197, 768]             151,296
│    │    └─Dropout: 3-1                           [1, 197, 768]             [1, 197, 768]             --
│    │    └─Sequential: 3-2                        [1, 197, 768]             [1, 197, 768]             85,054,464
│    │    └─LayerNorm: 3-3                         [1, 197, 768]             [1, 197, 768]             1,536
│    └─Sequential: 2-3                             [1, 768]                  [1, 3]                    --
│    │    └─Linear: 3-4                            [1, 768]                  [1, 3]                    2,307
=============================================================================================================================
Total params: 85,407,747
Trainable params: 85,407,747
Non-trainable params: 0
Total mult-adds (Units.MEGABYTES): 95.40
=============================================================================================================================
Input size (MB): 0.20
Forward/backward pass size (MB): 104.09
…
