…
325: swin.norm.weight
326: swin.norm.bias
327: swin.head.weight
328: swin.head.bias
=============================================================


==================================================================================================================================
Layer (type:depth-idx)                                  Input Shape               Output Shape              Param #
==================================================================================================================================
SWIN                                                    [1, 1, 224, 224]          [1, 3]                    --
├─SwinTransformer: 1-1                                  [1, 1, 224, 224]          [1, 3]                    --
│    └─Sequential: 2-1                                  [1, 1, 224, 224]          [1, 7, 7, 1024]           --
│    │    └─Sequential: 3-1                             [1, 1, 224, 224]          [1, 56, 56, 128]          2,432
│    │    └─Sequential: 3-2                             [1, 56, 56, 128]          [1, 56, 56, 128]          397,896
│    │    └─PatchMerging: 3-3                           [1, 56, 56, 128]          [1, 28, 28, 256]          132,096
│    │    └─Sequential: 3-4                             [1, 28, 28, 256]          [1, 28, 28, 256]          1,582,224
│    │    └─PatchMerging: 3-5                           [1, 28, 28, 256]          [1, 14, 14, 512]          526,336
│    │    └─Sequential: 3-6                             [1, 14, 14, 512]          [1, 14, 14, 512]          56,791,584
│    │    └─PatchMerging: 3-7                           [1, 14, 14, 512]          [1, 7, 7, 1024]           2,101,248
│    │    └─Sequential: 3-8                             [1, 7, 7, 1024]           [1, 7, 7, 1024]           25,203,264
│    └─LayerNorm: 2-2                                   [1, 7, 7, 1024]           [1, 7, 7, 1024]           2,048
│    └─Permute: 2-3                                     [1, 7, 7, 1024]           [1, 1024, 7, 7]           --
│    └─AdaptiveAvgPool2d: 2-4                           [1, 1024, 7, 7]           [1, 1024, 1, 1]           --
│    └─Flatten: 2-5                                     [1, 1024, 1, 1]           [1, 1024]                 --
│    └─Linear: 2-6                                      [1, 1024]                 [1, 3]                    3,075
==================================================================================================================================
Total params: 86,742,203
Trainable params: 86,742,203
Non-trainable params: 0
Total mult-adds (M): 65.53
==================================================================================================================================
Input size (MB): 0.20
Forward/backward pass size (MB): 189.46
…
