…
292: vit.encoder.ln.weight
293: vit.encoder.ln.bias
294: vit.heads.0.weight
295: vit.heads.0.bias
=============================================================


==================================================================================================================================
Layer (type:depth-idx)                                  Input Shape               Output Shape              Param #
==================================================================================================================================
VIT_L32                                                 [1, 1, 224, 224]          [1, 3]                    --
├─VisionTransformer: 1-1                                [1, 1, 224, 224]          [1, 3]                    1,024
│    └─Conv2d: 2-1                                      [1, 1, 224, 224]          [1, 1024, 7, 7]           1,049,600
│    └─Encoder: 2-2                                     [1, 50, 1024]             [1, 50, 1024]             51,200
│    │    └─Dropout: 3-1                                [1, 50, 1024]             [1, 50, 1024]             --
│    │    └─Sequential: 3-2                             [1, 50, 1024]             [1, 50, 1024]             302,309,376
│    │    └─LayerNorm: 3-3                              [1, 50, 1024]             [1, 50, 1024]             2,048
│    └─Sequential: 2-3                                  [1, 1024]                 [1, 3]                    --
│    │    └─Linear: 3-4                                 [1, 1024]                 [1, 3]                    3,075
==================================================================================================================================
Total params: 303,416,323
Trainable params: 303,416,323
Non-trainable params: 0
Total mult-adds (M): 252.98
==================================================================================================================================
Input size (MB): 0.20
Forward/backward pass size (MB): 69.62
…
