…
310: resnet101.layer4.2.bn3.weight
311: resnet101.layer4.2.bn3.bias
312: resnet101.fc.weight
313: resnet101.fc.bias
=============================================================


========================================================================================================================
Layer (type:depth-idx)                        Input Shape               Output Shape              Param #
========================================================================================================================
ResNet101                                     [128, 1, 224, 224]        [128, 3]                  --
├─ResNet: 1-1                                 [128, 1, 224, 224]        [128, 3]                  --
│    └─Conv2d: 2-1                            [128, 1, 224, 224]        [128, 64, 112, 112]       (3,136)
│    └─BatchNorm2d: 2-2                       [128, 64, 112, 112]       [128, 64, 112, 112]       (128)
│    └─ReLU: 2-3                              [128, 64, 112, 112]       [128, 64, 112, 112]       --
│    └─MaxPool2d: 2-4                         [128, 64, 112, 112]       [128, 64, 56, 56]         --
│    └─Sequential: 2-5                        [128, 64, 56, 56]         [128, 256, 56, 56]        --
│    │    └─Bottleneck: 3-1                   [128, 64, 56, 56]         [128, 256, 56, 56]        (75,008)
│    │    └─Bottleneck: 3-2                   [128, 256, 56, 56]        [128, 256, 56, 56]        (70,400)
│    │    └─Bottleneck: 3-3                   [128, 256, 56, 56]        [128, 256, 56, 56]        (70,400)
│    └─Sequential: 2-6                        [128, 256, 56, 56]        [128, 512, 28, 28]        --
│    │    └─Bottleneck: 3-4                   [128, 256, 56, 56]        [128, 512, 28, 28]        (379,392)
│    │    └─Bottleneck: 3-5                   [128, 512, 28, 28]        [128, 512, 28, 28]        (280,064)
│    │    └─Bottleneck: 3-6                   [128, 512, 28, 28]        [128, 512, 28, 28]        (280,064)
│    │    └─Bottleneck: 3-7                   [128, 512, 28, 28]        [128, 512, 28, 28]        280,064
│    └─Sequential: 2-7                        [128, 512, 28, 28]        [128, 1024, 14, 14]       --
│    │    └─Bottleneck: 3-8                   [128, 512, 28, 28]        [128, 1024, 14, 14]       1,512,448
│    │    └─Bottleneck: 3-9                   [128, 1024, 14, 14]       [128, 1024, 14, 14]       1,117,184
│    │    └─Bottleneck: 3-10                  [128, 1024, 14, 14]       [128, 1024, 14, 14]       1,117,184
│    │    └─Bottleneck: 3-11                  [128, 1024, 14, 14]       [128, 1024, 14, 14]       1,117,184
│    │    └─Bottleneck: 3-12                  [128, 1024, 14, 14]       [128, 1024, 14, 14]       1,117,184
│    │    └─Bottleneck: 3-13                  [128, 1024, 14, 14]       [128, 1024, 14, 14]       1,117,184
│    │    └─Bottleneck: 3-14                  [128, 1024, 14, 14]       [128, 1024, 14, 14]       1,117,184
│    │    └─Bottleneck: 3-15                  [128, 1024, 14, 14]       [128, 1024, 14, 14]       1,117,184
│    │    └─Bottleneck: 3-16                  [128, 1024, 14, 14]       [128, 1024, 14, 14]       1,117,184
│    │    └─Bottleneck: 3-17                  [128, 1024, 14, 14]       [128, 1024, 14, 14]       1,117,184
│    │    └─Bottleneck: 3-18                  [128, 1024, 14, 14]       [128, 1024, 14, 14]       1,117,184
│    │    └─Bottleneck: 3-19                  [128, 1024, 14, 14]       [128, 1024, 14, 14]       1,117,184
│    │    └─Bottleneck: 3-20                  [128, 1024, 14, 14]       [128, 1024, 14, 14]       1,117,184
│    │    └─Bottleneck: 3-21                  [128, 1024, 14, 14]       [128, 1024, 14, 14]       1,117,184
│    │    └─Bottleneck: 3-22                  [128, 1024, 14, 14]       [128, 1024, 14, 14]       1,117,184
│    │    └─Bottleneck: 3-23                  [128, 1024, 14, 14]       [128, 1024, 14, 14]       1,117,184
│    │    └─Bottleneck: 3-24                  [128, 1024, 14, 14]       [128, 1024, 14, 14]       1,117,184
│    │    └─Bottleneck: 3-25                  [128, 1024, 14, 14]       [128, 1024, 14, 14]       1,117,184
│    │    └─Bottleneck: 3-26                  [128, 1024, 14, 14]       [128, 1024, 14, 14]       1,117,184
│    │    └─Bottleneck: 3-27                  [128, 1024, 14, 14]       [128, 1024, 14, 14]       1,117,184
│    │    └─Bottleneck: 3-28                  [128, 1024, 14, 14]       [128, 1024, 14, 14]       1,117,184
│    │    └─Bottleneck: 3-29                  [128, 1024, 14, 14]       [128, 1024, 14, 14]       1,117,184
│    │    └─Bottleneck: 3-30                  [128, 1024, 14, 14]       [128, 1024, 14, 14]       1,117,184
│    └─Sequential: 2-8                        [128, 1024, 14, 14]       [128, 2048, 7, 7]         --
│    │    └─Bottleneck: 3-31                  [128, 1024, 14, 14]       [128, 2048, 7, 7]         6,039,552
│    │    └─Bottleneck: 3-32                  [128, 2048, 7, 7]         [128, 2048, 7, 7]         4,462,592
│    │    └─Bottleneck: 3-33                  [128, 2048, 7, 7]         [128, 2048, 7, 7]         4,462,592
│    └─AdaptiveAvgPool2d: 2-9                 [128, 2048, 7, 7]         [128, 2048, 1, 1]         --
│    └─Linear: 2-10                           [128, 2048]               [128, 3]                  6,147
========================================================================================================================
Total params: 42,500,035
Trainable params: 41,061,891
Non-trainable params: 1,438,144
Total mult-adds (Units.GIGABYTES): 988.26
========================================================================================================================
Input size (MB): 25.69
Forward/backward pass size (MB): 33243.01
…
