…
175: model.blocks.11.mlp.fc2.bias
176: model.norm.weight
177: model.norm.bias
178: model.head.weight
179: model.head.bias
=============================================================


========================================================================================================================
Layer (type:depth-idx)                        Input Shape               Output Shape              Param #
========================================================================================================================
CvT                                           [1, 1, 224, 224]          [1, 3]                    --
├─ConVit: 1-1                                 [1, 1, 224, 224]          [1, 3]                    151,296
│    └─PatchEmbed: 2-1                        [1, 1, 224, 224]          [1, 196, 768]             --
│    │    └─Conv2d: 3-1                       [1, 1, 224, 224]          [1, 768, 14, 14]          197,376
│    │    └─Identity: 3-2                     [1, 196, 768]             [1, 196, 768]             --
│    └─Dropout: 2-2                           [1, 196, 768]             [1, 196, 768]             --
│    └─ModuleList: 2-3                        --                        --                        --
│    │    └─Block: 3-3                        [1, 196, 768]             [1, 196, 768]             (7,085,648)
│    │    └─Block: 3-4                        [1, 196, 768]             [1, 196, 768]             (7,085,648)
│    │    └─Block: 3-5                        [1, 196, 768]             [1, 196, 768]             (7,085,648)
│    │    └─Block: 3-6                        [1, 196, 768]             [1, 196, 768]             (7,085,648)
│    │    └─Block: 3-7                        [1, 196, 768]             [1, 196, 768]             (7,085,648)
│    │    └─Block: 3-8                        [1, 196, 768]             [1, 196, 768]             (7,085,648)
│    │    └─Block: 3-9                        [1, 196, 768]             [1, 196, 768]             (7,085,648)
│    │    └─Block: 3-10                       [1, 196, 768]             [1, 196, 768]             7,085,648
│    │    └─Block: 3-11                       [1, 196, 768]             [1, 196, 768]             7,085,648
│    │    └─Block: 3-12                       [1, 196, 768]             [1, 196, 768]             7,085,648
│    │    └─Block: 3-13                       [1, 197, 768]             [1, 197, 768]             7,085,568
│    │    └─Block: 3-14                       [1, 197, 768]             [1, 197, 768]             7,085,568
│    └─LayerNorm: 2-4                         [1, 197, 768]             [1, 197, 768]             1,536
│    └─Dropout: 2-5                           [1, 768]                  [1, 768]                  --
│    └─Linear: 2-6                            [1, 768]                  [1, 3]                    2,307
========================================================================================================================
Total params: 85,380,131
Trainable params: 28,544,419
Non-trainable params: 56,835,712
Total mult-adds (M): 123.72
========================================================================================================================
Input size (MB): 0.20
Forward/backward pass size (MB): 210.68
…
